…
/Users/raymbp/Desktop/RayDocs/Projects/SoftwareDev/venv_general_python396/lib/python3.9/site-packages/huggingface_hub/file_download.py:1132: FutureWarning: `resume_download` is deprecated and will be removed in version 1.0.0. Downloads always resume when possible. If you want to force a new download, use `force_download=True`.
  warnings.warn(

In [6]: model = model_class.from_pretrained(pretrained_weights)
/Users/raymbp/Desktop/RayDocs/Projects/SoftwareDev/venv_general_python396/lib/python3.9/site-packages/huggingface_hub/file_download.py:1132: FutureWarning: `resume_download` is deprecated and will be removed in version 1.0.0. Downloads always resume when possible. If you want to force a new download, use `force_download=True`.
  warnings.warn(

In [7]: model
Out[7]:
DistilBertModel(
  (embeddings): Embeddings(
    (word_embeddings): Embedding(30522, 768, padding_idx=0)
    (position_embeddings): Embedding(512, 768)
    (LayerNorm): LayerNorm((768,), eps=1e-12, elementwise_affine=True)
    (dropout): Dropout(p=0.1, inplace=False)
  )
  (transformer): Transformer(
    (layer): ModuleList(
      (0-5): 6 x TransformerBlock(
        (attention): MultiHeadSelfAttention(
          (dropout): Dropout(p=0.1, inplace=False)
          (q_lin): Linear(in_features=768, out_features=768, bias=True)
          (k_lin): Linear(in_features=768, out_features=768, bias=True)
          (v_lin): Linear(in_features=768, out_features=768, bias=True)
          (out_lin): Linear(in_features=768, out_features=768, bias=True)
        )
        (sa_layer_norm): LayerNorm((768,), eps=1e-12, elementwise_affine=True)
        (ffn): FFN(
          (dropout): Dropout(p=0.1, inplace=False)
          (lin1): Linear(in_features=768, out_features=3072, bias=True)
          (lin2): Linear(in_features=3072, out_features=768, bias=True)
          (activation): GELUActivation()
        )
        (output_layer_norm): LayerNorm((768,), eps=1e-12, elementwise_affine=True)
      )
    )
  )
)

In [8]: dir(model)
Out[8]:
['T_destination',
 '__annotations__',
 '__call__',
 '__class__',
 '__delattr__',
 '__dict__',
 '__dir__',
 '__doc__',
 '__eq__',
 '__format__',
 '__ge__',
 '__getattr__',
 '__getattribute__',
 '__getstate__',
 '__gt__',
 '__hash__',
 '__init__',
 '__init_subclass__',
 '__le__',
 '__lt__',
 '__module__',
 '__ne__',
…
